model/model.pth (torch, 16787 bytes, 4 tensors)

linear1.weight f4 [256, 11]
00000000: 6d58 71be 608d 783d c6ee 75bd 65bf 12be
00000010: 2853 05bc e462 adbe 63f4 b3bc 7461 3f3c
00000020: 5c77 63bb 539c ecbc 3130 95bd b197 32be
00000030: 3c7b 32be fc97 aabe 97cc 9fbe 0a1e 42be
00000040: f25e 9f3e cf55 e53e 7cca 16bf 8886 25bf
00000050: fa47 4a3e 1c51 e63d c069 523d 73ae 393f
00000060: 6556 913e 8f11 adbe 9250 933d 1b20 20be
00000070: 0d37 483c bcb1 103f 02a6 223e 4394 d03e
00000080: 33cb 883e a5eb 023d c72d de38 f2bf 253f
00000090: 0108 c4ba 304a b5be 7b23 a73d f1cf a5be
000000a0: c320 453d 635b cb3e 60a3 a03e fc9d d13e
000000b0: 8b32 6c3e a4b3 2a3d 434d f9be 0019 483e
000000c0: b575 02be 8ea3 99be 107b 10bd 57e3 11bd
000000d0: f61f 4bbc 916a d43e c80b f0bb 6f13 31be
000000e0: 23fb 8dbe 8309 0ebf 4763 8fbd c261 bdbe
000000f0: 23aa 233f e149 283f 99fa c6be 8e41 07bf
00000100: 16fe 13bd 452d 453d 939e 0f3e 28ab 973d
00000110: 3762 00be 3413 063d f030 283d 1d40 bdb9
00000120: 0969 8fbe 5074 d5bd 3bef 48be f2c2 6dbe
00000130: 69bd 26be 5d9f 503e badc f43d f46d db3e
00000140: 25c4 493d fcfe 2abe 6b60 403e a727 d7bd
00000150: 2e4a 223e ec87 a33e 95d8 0a3e b74d c43e
00000160: 0cc1 203e 83eb ce3e 129e 41bf e14d 893e
00000170: 34ed 2e3d c5fc d1bd 98c7 8f3e d8d2 11be
00000180: 9cf7 253e 3fd0 abbe 0a6a 463b c8f0 963e
00000190: 0f2b e93d 9b82 d8be beb7 2cbe 0d73 8a3c
000001a0: c02d 5dbe 77d8 1fbe e449 5a3e 393c 3a3b
000001b0: e26b e83d 7cb5 9b3e 7af0 103d f2d0 70bf
000001c0: be8b 4a3e f4d5 ecbd 1e99 fa3e 649b 163e
000001d0: f666 a4be 653a c3bc 879b dabe ac7b c5be
000001e0: 8670 9e3e 1e00 c03e 82e2 823e 81ad a63d
000001f0: 45e0 853e 8339 9bbe d4d5 ae3e 0cb8 d6bd
00000200: 685c cfbd b949 cc3e 88d5 c0bd 5dbf 063f
00000210: a92b debd 57a4 4cbf 097e d93d 7268 88bd
00000220: b3ce 323e 9f39 abbe e6c8 043e 147a b53e
00000230: e6cd 113e b874 f53e e969 4f3e a49a a73d
00000240: 7cb8 84be 5495 8b3e 70dd 10bd f47d 7dbe
00000250: da7e 10bf cb09 12be b1bd 6dbe 9466 babe
00000260: dc2e 66be a967 b8be 6ca6 a93e 57f7 2ebf
00000270: fe7c eb3e 424f 37be 487f 163d 46b1 9dbe
00000280: 1813 0abe 3171 f9bd 92ab 65be 3954 17bd
00000290: 4e97 c63d bceb b93d 80b5 b2be 8c35 7b3d
000002a0: f212 623e ce9b ae3d 5629 e7be 57a9 64be
000002b0: 0e03 d1bd 9cef 3c3e f52c 27bf ab5a 28bf
000002c0: 8022 a13c d7aa 98be 80cf 38be 9610 e7bd
000002d0: 5bb3 82be 4466 123e c06d e73c 0094 a4bc
000002e0: d883 56bd b805 90be 36b9 8dbe f227 ab3e
000002f0: c95f 3f3e 1f62 ebbe 0516 e43d 42d2 80be
00000300: dfb3 5f3e 13a1 6a3e a880 c2bd 7b48 263e
00000310: 8e80 79be aa54 13bf 7f79 19be bdc6 29bf
00000320: 8bde 4bbe 6732 c9be 164d b0be 958d ba3e
00000330: cad1 cf3e 4804 443e 9ea4 813e 0083 47bf
00000340: dadd 40bf 327d 573e d8e9 f83e 4a5e 993c
00000350: 40d1 173e f4c2 8abe 679e ab3e 6c82 9cbe
00000360: c64d 81bc d779 acbe 5db4 63be a734 9b3e
00000370: e0f5 823e ba33 a73c 1ee7 e23e decd b8be
00000380: 6dd0 ff3d d6cc 33bb d799 84be 045c 2e3e
00000390: 3ead 79be eba8 09be a18e bbbe 29a4 203e
000003a0: 0ef4 2d3e 14d9 8ebe 4659 30be e514 9c3d
000003b0: 13a6 ddbc fdd9 70bd 708c 00be 4ce5 06bf
000003c0: 08c3 bdbe 26ca 6bbd 9247 4b3c c1df f9be
000003d0: 0ce7 a8be 6c6b 36be 49fc b6bd b10f b2be
000003e0: e8e5 153e f09d f63d eefb 7cbd 9e9f 7c3e
000003f0: 46f2 aabe 069a 8fbe e4f3 13bf 7273 ce3d
-0.23568888 0.0606817 -0.060042165 -0.14330824 -0.008137502 -0.3386451 -0.021967119 0.0116809495
-0.0034708595 -0.028883135 -0.072845824 -0.17440678 -0.17429823 -0.3331908 -0.31210777 -0.18956771
0.31127125 0.4479203 -0.58902717 -0.64658403 0.1975402 0.11245939 0.051370382 0.72531813
0.28386226 -0.3380246 0.07193102 -0.15637247 0.012220156 0.565212 0.1588364 0.40738115
0.2671753 0.03196301 0.000105943116 0.6474601 -0.0014955999 -0.35408163 0.08161064 -0.3238521
0.048126947 0.3971816 0.31374645 0.40940845 0.23066156 0.041675225 -0.4869176 0.19540787
-0.12740214 -0.30007595 -0.03527361 -0.0356172 -0.012397757 0.41487554 -0.007325623 -0.1729257
-0.27730665 -0.55483264 -0.070013575 -0.36988646 0.63931483 0.6573773 -0.38863066 -0.52834404
-0.036130987 0.048138876 0.14025335 0.07405692 -0.12537466 0.032733157 0.041062295 -0.00036096657
-0.28009823 -0.104225755 -0.19622509 -0.23218897 -0.16283192 0.20373292 0.11956163 0.42857325
0.049259324 -0.16698831 0.1878678 -0.1050561 0.1584861 0.31939638 0.13559182 0.38340542
0.15698642 0.40414056 -0.7563182 0.2681723 0.042706683 -0.1025329 0.28081965 -0.14240587
0.16207737 -0.33557317 0.0030275607 0.29480577 0.11385166 -0.42287144 -0.16866967 0.016900564
-0.21599483 -0.15609919 0.2131725 0.0028417243 0.11348702 0.304119 0.035385586 -0.94068825
0.1977987 -0.11564246 0.48944944 0.14707714 -0.32109803 -0.023831556 -0.42696783 -0.38570917
0.30945224 0.3750009 0.25563437 0.08138562 0.26147667 -0.30317315 0.34147513 -0.10484323
-0.10125047 0.39899996 -0.09415728 0.5263575 -0.10848171 -0.7993826 0.106197424 -0.06660546
0.17461662 -0.334424 0.12967262 0.354447 0.142387 0.47940612 0.20255245 0.08183792
-0.25922 0.27262366 -0.03536743 -0.24755079 -0.5644356 -0.14261548 -0.23216893 -0.36406386
-0.22478813 -0.36016586 0.33134782 -0.6834616 0.459938 -0.17901328 0.03674248 -0.3079931
-0.13483846 -0.12179793 -0.2242873 -0.036945555 0.09696828 0.09078166 -0.349041 0.061330363
0.2207754 0.08525811 -0.45148724 -0.22330223 -0.10205661 0.18450779 -0.65302974 -0.6576335
0.019669771 -0.2981784 -0.18047905 -0.112824604 -0.25527462 0.14296824 0.028250575 -0.020090103
-0.05237183 -0.28129363 -0.27680367 0.33428913 0.18688883 -0.45973298 0.111370124 -0.25160414
0.21845959 0.22913007 -0.094971955 0.16238587 -0.24365446 -0.5755106 -0.14987753 -0.66318876
-0.19909112 -0.39296266 -0.34433812 0.36436144 0.40589744 0.19142258 0.25320905 -0.77934265
-0.7533852 0.21043852 0.4861591 0.018721718 0.14825916 -0.27101862 0.3351929 -0.30568254
-0.015784156 -0.33686706 -0.22236772 0.30313608 0.25578213 0.020410407 0.44316953 -0.36094564
0.12490926 -0.0027435324 -0.2589862 0.17027289 -0.24382493 -0.13443343 -0.36632255 0.15687622
0.1698763 -0.27899992 -0.17221555 0.07621173 -0.02705673 -0.05880164 -0.12553573 -0.5269363
-0.3706286 -0.05756583 0.0124072 -0.48803523 -0.32988775 -0.17814416 -0.08934838 -0.34777597
0.14638484 0.12041843 -0.061763696 0.24670264 -0.33387965 -0.28047198 -0.5779402 0.10080613

linear1.bias f4 [256]
00000000: fcf5 83bd 327b 263f ddf1 9ebe 4efb bfbd
00000010: 0814 01bf d0a7 333f be2c 6abe ffb3 03bf
00000020: 6b38 823c 378e cdbe 92fa 1bbe 8bfb e4be
00000030: 56cd b6be e047 efbd 0183 00be 2727 1d3f
00000040: a4c1 5ebe 87ab acbc 4626 733d 808f 83be
00000050: 507b f9bd 3d86 97be f948 60be 3811 073f
00000060: e162 87be 407c 04bf 0f94 89be 2054 bebd
00000070: c54c 05bf 6e3a ebbc 8cb1 1dbe fa0a 78bd
00000080: 506b f93d 8996 f6be f6fc a73e ef7e 8fbe
00000090: 825c 43be 44b8 99be 3db6 a8bd cd23 1cbe
000000a0: 9bbb 863e 6312 c9be 1f38 cebe 4485 6e3e
000000b0: ea21 1dbe c0ca 2cbd 441e 9bbe 5ea9 8abe
000000c0: 2051 083c 8264 5fbe 8e29 c7be 4951 8f3e
000000d0: 048d 97be 4dfa 4bbe 40c3 a3be 82d6 df3e
000000e0: 4a43 8bbe 4017 25be fafa 46bd 951a eabe
000000f0: 5319 a03e da5b a8be 9c2a a5be 0ff7 96be
00000100: f9c6 903e e4d0 28be 30f1 f33c 0da7 aebe
00000110: c00a 04be fc16 683d 0b08 863e f3fc 483c
00000120: 595c 8a3d 68b1 ebbc d60f 24be b45a ae3c
00000130: eeb0 edbc f85c 75be 7969 33be 5f68 d23e
00000140: 89cb 6bbe b64d fe3d 05b5 0abe 4659 febd
00000150: c10a 62be 040f 51be 237c ddbd a7be cabd
00000160: e1b6 c9bd ced7 423e fb7f a9be e98f c4be
00000170: 7460 80be 2c0d e33e 0271 e5be 5ba1 e7be
00000180: bbd0 abbd eea8 23be 97be 00bf 2e70 0ebe
00000190: 501d 07bf 4960 a7be 2297 b4be 75e5 d5be
000001a0: 5b09 d1bd c14e 4ebe a451 133f a4f1 0cbe
000001b0: cbb9 e3bc 9437 8fbe f500 ebbe 7a05 9dbe
000001c0: ac6c c2be 079a 4c3d 9ecf 0d3f 4e76 d83e
000001d0: d198 62be a34c 46be eeff 7e3e 88a4 143e
000001e0: 849e aa3e c946 1cbe 7099 5abd 9811 80be
000001f0: e625 96be d4c4 7abe 4882 5cbd 72d6 95be
00000200: b085 01be b5e2 debe 4596 3e3e 5e3f bcbc
00000210: 4d35 e4be 773a 2abe bdfd 50bd 5de7 0b3e
00000220: 94da 43be 92f5 b0be f989 abbe aa91 b23b
00000230: c2e2 6d3e 4e10 09bf 079e a9bd fd19 e93e
00000240: c48a 633d 2ee0 8bbe fc46 5bbd 7e68 99be
00000250: 8fe1 9fbe 14de 6cbe d392 a63e 5a38 a7be
00000260: 55e0 c2be 7d44 4bbe a2a8 83bd 47be c5bd
00000270: eddf 103e ba74 663e 6021 acbe 5077 a0bc
00000280: cf78 4dbe 58f2 1c3e a3c8 17bf a01c 85be
00000290: 2746 a8be cb5b 94be 8498 84be 7656 e93e
000002a0: 04ff a4be 08bc d23e 5346 9e3e d348 1cbe
000002b0: 3b4c 063f fb90 88be d160 96be d9b3 c3be
000002c0: 50dd 733d 0da8 803f d2a0 93be c205 1fbe
000002d0: af7f e0be 5d53 6fbe 5585 a43d 639c f7be
000002e0: e418 66be 39a9 8cbe 8ebe a5be f0ce 10bf
000002f0: 5baf b33d a6eb b7be 8fd6 643d 015d 40bc
00000300: 2f83 aabe 171e f63d aa5e 04bd 87c0 06bc
00000310: 4591 89be 8fb5 babe ddf0 873d d936 74bd
00000320: cb9a c23e aa76 3ebe 7f3e 55be f5e0 9fbe
00000330: db1f 61be 2637 dfbe 0503 94bd 20bb 74be
00000340: 17f4 1fbe 9372 a7be f9ff 6fbe 5314 9ebd
00000350: afe6 6c3d 6023 99be 5cdd 6cbe 28c5 603d
00000360: 7b3d 073e 649f 85be f8f4 a43d 520e f2be
00000370: 0be6 f13e 5c1a 97be 7092 8ebe 94cd 063f
00000380: 8c8b c23d 00c5 3bbe 1830 853c fa54 4fbe
00000390: d6ea 05bf 8aa4 97be 158d a0be 41ec 57be
000003a0: c051 d7be 1cb0 b3be a502 043e 913b 9e3e
000003b0: 5898 87be 323f 61bc 8ea1 bc3d 5953 7b3d
000003c0: ac44 83be 96ee 0e3f adab 60be e4b8 60bc
000003d0: 71d6 c6be d7f2 89be 3aa3 2d3c 4763 4fbe
000003e0: 6830 a13b 32a9 34be bbba 053d 5706 acbe
000003f0: f4a1 82be fae7 3ebe 8fdd 0d3d 9b2b 68be
-0.06443402 0.6503173 -0.31043902 -0.093741044 -0.5042119 0.70177937 -0.2286863 -0.5144653
0.015896043 -0.40147564 -0.15232304 -0.44723162 -0.35703534 -0.11683631 -0.12549974 0.61387867
-0.21753556 -0.021077884 0.059362672 -0.2569542 -0.12181723 -0.29594603 -0.21902837 0.5276065
-0.26442626 -0.5175209 -0.26870772 -0.09293389 -0.52070266 -0.028714385 -0.1539976 -0.060557343
0.12178671 -0.48161724 0.3281018 -0.2802653 -0.19078258 -0.30023396 -0.08237884 -0.15248032
0.26315007 -0.3927184 -0.40277192 0.23293024 -0.15344968 -0.042185545 -0.30296528 -0.27082342
0.008320123 -0.21815684 -0.3889889 0.27991703 -0.29599774 -0.19919701 -0.319849 0.43718344
-0.27199775 -0.1612215 -0.048579194 -0.45723405 0.3126932 -0.32882577 -0.3225907 -0.29485366
0.28276804 -0.16485935 0.029778093 -0.34111825 -0.12894726 0.056662545 0.2617801 0.012267339
0.06755895 -0.028771117 -0.16021666 0.021283485 -0.02901503 -0.23961246 -0.17520703 0.41095254
-0.23026861 0.12417166 -0.13545616 -0.12419371 -0.22074415 -0.20415884 -0.10814693 -0.09899645
-0.098493345 0.19027635 -0.33105454 -0.38391045 -0.25073588 0.44345987 -0.4481278 -0.45240292
-0.083894216 -0.1598241 -0.5029082 -0.1390998 -0.527791 -0.32690647 -0.35271555 -0.41776624
-0.102068625 -0.2014723 0.5754645 -0.13764054 -0.027798554 -0.2797209 -0.45899168 -0.3066824
-0.37973535 0.04995158 0.55394924 0.4227776 -0.22128607 -0.19365172 0.24902317 0.14515889
0.33324063 -0.15261377 -0.053368986 -0.25013423 -0.2932579 -0.24489146 -0.053835183 -0.2926517
-0.12648654 -0.4353234 0.18612011 -0.022979435 -0.44571915 -0.16623865 -0.051023234 0.13662477
-0.1912635 -0.34562355 -0.33503702 0.0054494934 0.23231032 -0.53540504 -0.082820944 0.4552764
0.05555226 -0.27319473 -0.053534493 -0.29962534 -0.31226775 -0.23131591 0.32533893 -0.3266018
-0.38061777 -0.19850345 -0.064286485 -0.09655433 0.14147921 0.22505465 -0.33619213 -0.019588143
-0.20065616 0.15326822 -0.5929052 -0.25998402 -0.32866022 -0.28976282 -0.2589761 0.45573777
-0.3222581 0.4115908 0.30913028 -0.15262155 0.5246007 -0.2667311 -0.2937074 -0.3822315
0.059537232 1.0051285 -0.28833634 -0.1552954 -0.43847415 -0.23371644 0.080332436 -0.483615
-0.22470433 -0.27472857 -0.32371944 -0.5656576 0.08773681 -0.35921973 0.05586868 -0.011740924
-0.3330321 0.12017458 -0.03231684 -0.008224613 -0.26868644 -0.36466643 0.06637738 -0.05962262
0.38008723 -0.18599954 -0.20824622 -0.31226316 -0.21984808 -0.43596762 -0.072271384 -0.23899508
-0.15620457 -0.327046 -0.2343749 -0.0771872 0.057837185 -0.299098 -0.23131317 0.054875523
0.13207047 -0.26098168 0.080545366 -0.4727655 0.4724582 -0.29512298 -0.27846098 0.5265744
0.09499273 -0.18336868 0.016258284 -0.2024726 -0.52311456 -0.2961772 -0.31357637 -0.21086217
-0.42054558 -0.35095298 0.12891634 0.3090482 -0.26483417 -0.013747977 0.092105016 0.061358783
-0.2563833 0.55832803 -0.21940489 -0.013715956 -0.3883548 -0.26943085 0.010597998 -0.20252715
0.0049191006 -0.17642668 0.032648783 -0.33598587 -0.25514185 -0.1864318 0.034635123 -0.22672884

linear2.weight f4 [3, 256]
00000000: a918 c2ba 5c8e 033f 305d 26be 9ad0 02be
00000010: a793 23be af49 d93e ddc6 f3bc bfda 49bd
00000020: 064f e73d 4dad 13bc f2f0 6fbe 2c4e 5dbe
00000030: 20b3 f9bd 5e8d bb3b 5d8e c53c 3c52 f63e
00000040: 5c40 2cbd c4d3 c5bd a193 18bd 6ef1 76bd
00000050: 308d 6dbe 685e 09be 5ab8 47be 0dca 8b3e
00000060: 42cf 0d3b a57d bbbc 45c7 bebe c6d7 633c
00000070: 04f3 ddbd fb64 023f 6fb6 053e ba8a 12be
00000080: 2ad4 12bd 634b 1bbd 4197 fb3e f295 afbc
00000090: b339 37be 2477 54be fd6f 5a3e 92f9 0cbe
000000a0: 3038 f03e 79d2 bbbb 2f69 31bd 102e 7b3d
000000b0: bfaf 52bb b5cb 16bf a257 c2bd e873 283c
000000c0: 66ba 973c 8085 92bb 9058 f4bd ce60 b23e
000000d0: 7785 a3be 50c2 5e3c be5a f0be bfad 673e
000000e0: 9cd2 cabe 91b2 49bd 0227 9bbc 0ec9 25bd
000000f0: bcde 273f c10e 1abd 3cc9 69bd d8ec 023d
00000100: 4016 983e b096 85ba 60ca fe3e 394f 2bbe
00000110: 6d50 9abd 8358 843c 4075 493e 457c af3c
00000120: eac6 793e 1899 38bd 8e01 35be 38aa 5ebe
00000130: 0a5a 613d edca cdbe 38b8 eb38 7233 bd3d
00000140: b538 82bd 4c66 783e d59f 623d e5d2 1fbd
00000150: 1d0a a8bc 08ad c5bc cb5e 04bf eb73 82be
00000160: b8ea c8be bd18 b73e 0aa0 63be 2c37 e2be
00000170: 00fd 4cbd 8e79 9e3e deda 3bbc 4c88 bbbc
00000180: 74be 0cbf 1307 79bc e109 11be 595b 043f
00000190: 4c9d 5ebe 47e5 c8bd 63cd b1be a4df dabe
000001a0: ca0d 23be da01 f8be 387e 273e 5acb a4bc
000001b0: 1ee4 07be 10b7 0a3d f47e e5bd bcc1 8c3d
000001c0: dc71 06bc 0124 31be af06 803e 5695 183e
000001d0: 3eb4 a73d 8d53 083e 4511 933d 54bb 303e
000001e0: 7770 a13e 38be 13bf 5e58 03bf ef0c 61be
000001f0: ca16 e1bc 1fcc 0ebe d37b 993d 42df 9abe
00000200: 4774 443e ac0e 4ebd 8cc8 993e 164e 823c
00000210: e2b2 d23d 92f1 a0bb 1db8 26be c37c cb3d
00000220: 761d 34be 16fb 26be 6d0a 903c c01f 86be
00000230: 15bd 213f 7b20 abbd 8865 2ebf 30be 433e
00000240: 045c 8fbb b525 07bc 14b7 06bf 5888 43bd
00000250: da65 e73b b1bc 483d caa9 a13e 0d67 8fbe
00000260: b73d e9bd d4ef a0be efe5 2abf 3738 31be
00000270: 53bd 9d3e ad72 aa3e 4613 7abd 4a95 b5be
00000280: 7f1f 80be 50f8 6a3d ec4b 7abd db26 abbc
00000290: d3de a73b 16d6 b8bc a7fe f7bd 496b 4e3e
000002a0: 1e92 d6bc c27e 9a3e 85d9 cc3e 2fef 03bf
000002b0: c8a9 bc3e 7ae8 e9bc 6445 98be 73b5 2abe
000002c0: c406 d33c c6ef 253f 7a9c fdbd 3514 4e3c
000002d0: 1f96 1cbd e13a a4bc 053d 153e f974 a9be
000002e0: 8746 ea3c e821 71bd 71b6 8cbe 038a 28bd
000002f0: 9d8e 153f ec53 66be dfd1 9f3e 2937 7bbc
00000300: 7758 24bd 5880 5ebe 3db7 3abc 95e7 f0bd
00000310: b3ac 64bd 9c40 95bd 36e8 0bbe 3472 e13c
00000320: ddf2 b43e acec 2bbc d8d3 1cbf b07d 74bd
00000330: b9a8 d93b 134f 293c 598d 8b3d 8b99 d73d
00000340: 076f 32be 09a6 28be 2bde e03a e949 fabe
00000350: 537e f83e e4e5 c1be 9eec 0dbf b6a3 c6be
00000360: ee4b 903e 3816 a73c 1147 7c3e 3b8f 5cbe
00000370: ed9c a83e bfa2 a4be 4482 c23c 9b10 813e
00000380: 48b4 093c 405c f8be 122c b03d 39a8 82be
00000390: e1a1 4ebe 1a98 cebc 7c7b 953c d536 263d
000003a0: 53c6 26bd 1650 22be 29f8 b33c dfa5 ba3d
000003b0: 0b58 dabe 18ce 833b f904 c53e bf6d ec3d
000003c0: 59fa c1bd 7db5 2e3e 5758 4b3e d00c 183e
000003d0: 2044 16be 07cc 273c d797 4ebe 556a 31be
000003e0: d402 653e 717e b3bc c83c bfbd 3238 52be
000003f0: 5e6d 3ebb a1c7 26bf f5b3 07bd 24ee 35bd
-0.0014808375 0.513891 -0.16246486 -0.12774888 -0.15974294 0.4243903 -0.029757911 -0.04928088
0.112943694 -0.009013486 -0.23431757 -0.21611851 -0.121923685 0.0057236394 0.024115736 0.48109615
-0.042053565 -0.09659532 -0.037250165 -0.06028884 -0.2319839 -0.1341492 -0.19503918 0.2730259
0.0021638428 -0.02288706 -0.37261406 0.013906425 -0.10837367 0.50935334 0.13057874 -0.14310732
-0.035846867 -0.03791369 0.49138835 -0.021433804 -0.17893104 -0.20748574 0.21331783 -0.13767079
0.46917868 -0.0057318774 -0.0433132 0.061323225 -0.003214821 -0.5890458 -0.09489371 0.01028154
0.018521499 -0.004471481 -0.119309545 0.3483948 -0.31937763 0.013596132 -0.4694423 0.22624873
-0.39613807 -0.04924256 -0.018939499 -0.040474944 0.6557424 -0.037611727 -0.057076678 0.031964153
0.29704475 -0.0010192003 0.49763775 -0.1672944 -0.07534871 0.016155487 0.19673634 0.021421561
0.24392286 -0.045067877 -0.17676374 -0.21744621 0.05501751 -0.40193883 0.000112399866 0.09238328
-0.06358472 0.24257773 0.05532821 -0.039019484 -0.020512635 -0.02413036 -0.5170714 -0.25479063
-0.39241576 0.3576106 -0.22229019 -0.44182718 -0.050045967 0.30952114 -0.011465756 -0.02289214
-0.5497811 -0.0151994405 -0.14163925 0.51701885 -0.21739691 -0.09809356 -0.3472701 -0.4274875
-0.15923229 -0.48438913 0.16356742 -0.020116497 -0.13270614 0.03386599 -0.11205855 0.068728894
-0.008205857 -0.1729889 0.250051 0.14900717 0.08188675 0.13313122 0.07181028 0.1725896
0.31531116 -0.57712126 -0.5130671 -0.2197759 -0.027476687 -0.13945054 0.07494321 -0.30248457
0.19184981 -0.05030696 0.30035818 0.015906375 0.102880254 -0.00491161 -0.16281171 0.09935906
-0.17589363 -0.16306719 0.017583096 -0.26196098 0.6317914 -0.083558045 -0.68123674 0.1911552
-0.004374983 -0.008248736 -0.52623105 -0.04773745 0.007061702 0.049008075 0.3157485 -0.2800831
-0.11388724 -0.31432974 -0.667571 -0.173066 0.30808505 0.33290616 -0.061053537 -0.3546546
-0.2502403 0.057365716 -0.06110756 -0.020892551 0.0051229983 -0.022563022 -0.12109118 0.20158114
-0.026192721 0.30174834 0.40009704 -0.5153684 0.36848283 -0.028553236 -0.2974044 -0.1667078
0.025760062 0.6481899 -0.12383361 0.01257806 -0.038229104 -0.020047607 0.14574058 -0.33097056
0.028598083 -0.058870226 -0.27482942 -0.041147243 0.58420736 -0.22492951 0.31214806 -0.015332975
-0.04012343 -0.21728647 -0.0113962265 -0.11762921 -0.05582876 -0.07287714 -0.136628 0.027520277
0.3534154 -0.010493439 -0.6126075 -0.059690177 0.0066424278 0.010333794 0.06814069 0.10527333
-0.17425166 -0.16469587 0.0017156055 -0.48884514 0.48533878 -0.37870705 -0.55439174 -0.38796777
0.2818293 0.020396337 0.24636485 -0.21539013 0.32932225 -0.32155415 0.023743756 0.2520798
0.008404799 -0.4850788 0.08602156 -0.2551897 -0.2017894 -0.025219012 0.018247359 0.040579636
-0.04071648 -0.15850863 0.021968918 0.09113669 -0.42645296 0.004022371 0.38480356 0.1154437
-0.09471578 0.1706142 0.19857918 0.14848638 -0.14674425 0.010241515 -0.2017511 -0.17325719
0.2236436 -0.021910878 -0.09337765 -0.2052925 -0.0029056887 -0.6514836 -0.033130605 -0.04441656

linear2.bias f4 [3]
00000000: 3926 c23e d4fa aebc 249a b23d
0.37919787 -0.021359839 0.08720806
