model/model.pth (torch, 16787 bytes, 4 tensors)

linear1.weight f4 [256, 11]
0.036560018 0.062235493 0.35693356 -0.15843908 0.1893632 -0.06899321 0.13741173 0.09228061
-0.038346928 0.20329763 0.013092622 0.2380752 0.065286055 0.13919166 0.06436025 -0.11760996
-0.23104031 -0.13019924 0.12500726 0.10095762 0.058481295 0.12779622 -0.015932458 -0.29116952
-0.1802267 0.099071845 0.18368204 -0.026771454 0.20689936 0.09789847 -0.33832482 0.21815978
0.0019540715 0.17811587 -0.230924 0.16531554 -0.06004712 0.16542137 0.038445864 0.2640546
0.19945598 -0.015567785 -0.0033174343 -0.17881748 0.18043323 0.19492888 0.07818583 0.1963873
0.20603497 -0.25256005 0.07571992 0.016827416 0.19023885 0.20051321 0.061992645 0.014878334
-0.14355452 -0.07056086 -0.13793705 0.24938637 -0.2589493 -0.25485605 -0.027135612 0.119433396
-0.26542443 0.08261028 -0.11118136 -0.3536198 0.33597204 0.3707782 -0.18771604 0.24969333
-0.29285073 -0.14451198 0.21590196 0.20667766 -0.1990616 -0.15423873 -0.25653747 0.18179491
-0.2404063 -0.29347968 -0.001833544 -0.20622748 -0.191843 -0.16108423 0.24931318 0.2277508
0.20748116 -0.03134788 0.056806877 -0.122990854 -0.06246645 -0.2570635 0.23885523 -0.024783738
0.0060620434 -0.05898319 -0.055459242 -0.31343225 0.224324 -0.24190277 0.2159112 -0.26592952
0.29961255 0.23045275 -0.2256317 -0.0282322 -0.11638735 -0.24905854 -0.008885032 -0.105721876
0.011883684 0.2821756 -0.27276778 0.07414513 0.1258282 0.2212076 -0.20337445 0.13464735
-0.23039144 -0.13352224 -0.34775856 -0.2696902 -0.23937787 -0.0049350658 -0.08323465 0.23944217
0.24453458 -0.08406027 -0.147255 0.18772799 0.10503054 -0.2972772 0.058646232 0.2832771
-0.07958162 -0.06672598 0.15932463 -0.13511631 -0.106404096 0.2600709 0.26418725 -0.23296872
0.12314041 0.11430562 0.0023272866 0.0991526 0.2654166 0.03487293 -0.12060285 -0.21880458
0.02995903 -0.24953435 -0.27262646 0.28148428 0.08218822 -0.084653944 -0.017790493 -0.06381521
0.23387358 -0.13527648 0.04423357 -0.22809477 0.07770608 -0.31960583 -0.2915302 -0.04025161
0.23758475 0.22017977 0.2566672 -0.3246558 -0.2511731 -0.06530546 0.21497376 0.21952389
0.25006345 0.34114373 0.019946996 0.056898307 0.055192444 0.26657784 -0.27854806 0.19022375
0.27032676 -0.03226979 -0.2233179 -0.08798295 0.008349796 -0.15511449 -0.068310656 0.2442678
0.22191772 0.33684584 0.14350626 0.16013701 0.32402822 -0.0063805724 -0.14900419 0.13835792
0.16234702 -0.13342752 -0.24902037 -0.12544942 0.23235427 -0.03739237 0.034937408 0.27916002
0.0041186507 0.17585942 0.15779191 0.106456034 -0.2593239 0.26671857 -0.09490199 0.2254598
0.014359652 0.24714583 0.2127975 -0.09681192 -0.05164653 -0.04757762 -0.09330252 -0.29959342
0.24094109 -0.26304042 0.21234632 0.011615525 -0.022264421 -0.22406054 -0.27767503 0.122880064
-0.23602593 0.3241457 0.16969119 0.11526253 0.17177966 0.051984638 0.14595573 -0.053854346
-0.15498614 -0.094519086 0.05563687 0.35818186 0.1640614 0.011233017 -0.27904812 0.012988414
-0.05358298 0.18833616 -0.1368184 -0.20252667 -0.04799637 0.08538552 -0.14107797 0.13453366
00000000: f5bf 153d a5ea 7e3d ffbf b63e db3d 22be
00000010: 6de8 413e 504c 8dbd a9b5 0c3e 9efd bc3d
00000020: ab11 1dbd 412d 503e 7082 563c fcc9 733e
00000030: b2b4 853d 4288 0e3e 4fcf 833d 7edd f0bd
00000040: d595 6cbe f352 05be e701 003e dec2 ce3d
00000050: 158a 6f3d 03dd 023e c984 82bc 2c14 95be
00000060: 598d 38be 2ee6 ca3d 2517 3c3e cf4f dbbc
00000070: 6ddd 533e fe7e c83d e938 adbe 4765 5f3e
00000080: e10f 003b 0264 363e 5777 6cbe 7a48 293e
00000090: f8f3 75bd 3864 293e 6979 1d3d 2a32 873e
000000a0: 303e 4c3e 0610 7fbc 5069 59bb ee1b 37be
000000b0: 7dc3 383e 709b 473e e41f a03d c119 493e
000000c0: d5fa 523e 8d4f 81be 0c13 9b3d a6d9 893c
000000d0: f9cd 423e 5653 4d3e 00ec 7d3d 41c4 733c
000000e0: f5ff 12be 3682 90bd 5f3f 0dbe 245f 7f3e
000000f0: 0195 84be 7e7c 82be 814b debc 7f99 f43d
00000100: b6e5 87be 942f a93d 0eb3 e3bd a80d b5be
00000110: 8704 ac3e a4d6 bd3e a238 40be 9caf 7f3e
00000120: 88f0 95be f3fa 13be 6715 5d3e 4fa3 533e
00000130: ced6 4bbe c2f0 1dbe e158 83be 7228 3a3e
00000140: 122d 76be f842 96be 8753 f0ba 4c2d 53be
00000150: 7e72 44be 44f3 24be f44b 7f3e 8137 693e
00000160: f175 543e a266 00bd 54ae 683d a1e2 fbbd
00000170: d2dc 7fbd d49d 83be 7796 743e 4407 cbbc
00000180: 1ba4 c63b 5c98 71bd 3b29 63bd 317a a0be
00000190: 31b5 653e 5cb5 77be d317 5d3e ea27 88be
000001a0: d166 993e cefb 6b3e ff0b 67be 3747 e7bc
000001b0: 7e5c eebd 3409 7fbe 8692 11bc b684 d8bd
000001c0: c9b3 423c 5279 903e 38a8 8bbe 67d9 973d
000001d0: 1cd9 003e 3f84 623e 6441 50be ffe0 093e
000001e0: bceb 6bbe 0eba 08be 690d b2be d514 8abe
000001f0: 791f 75be 55b6 a1bb ee76 aabd 5430 753e
00000200: 4667 7a3e ca27 acbd 04ca 16be c43b 403e
00000210: 401a d73d b834 98be 0837 703d b209 913e
00000220: b0fb a2bd a1a7 88bd ff25 233e ee5b 0abe
00000230: 64ea d9bd 0328 853e 8d43 873e 5a8f 6ebe
00000240: 0a31 fc3d 1119 ea3d 6485 183b 8510 cb3d
00000250: afe4 873e ebd6 0e3d a1fe f6bd 4f0e 60be
00000260: a46c f53c ef85 7fbe b295 8bbe b51e 903e
00000270: 4c52 a83d 0c5f adbd 5ebd 91bc 8cb1 82bd
00000280: 8e7c 6f3e eb85 0abe 432e 353d ad91 69be
00000290: 5e24 9f3d 60a3 a3be 7243 95be dfde 24bd
000002a0: 6b49 733e ce76 613e e269 833e 4939 a6be
000002b0: c399 80be debe 85bd 1522 5c3e dfca 603e
000002c0: 5108 803e 64aa ae3e e267 a33c 330e 693d
000002d0: 7911 623d e47c 883e da9d 8ebe 04ca 423e
000002e0: 4568 8a3e 542d 04bd 73ad 64be 6830 b4bd
000002f0: 95cd 083c 55d6 1ebe 75e6 8bbd 5721 7a3e
00000300: 663e 633e 0f77 ac3e 4ef3 123e f5fa 233e
00000310: 07e7 a53e 1f14 d1bb 8e94 18be b3ad 0d3e
00000320: 4c3e 263e 39a1 08be 32ff 7ebe d075 00be
00000330: 47ee 6d3e be28 19bd 871a 0f3d 10ee 8e3e
00000340: bff5 863b 7e14 343e 3494 213e 9f05 da3d
00000350: 1ac6 84be 568f 883e f95b c2bd efde 663e
00000360: bf44 6b3c cc13 7d3e 96e7 593e 5445 c6bd
00000370: 508b 53bd c0e0 42bd 6415 bfbd 4f64 99be
00000380: 43b9 763e 3cad 86be 5071 593e 0b4f 3e3c
00000390: e063 b6bc 2070 65be 6c2b 8ebe 8ba8 fb3d
000003a0: c8b0 71be 6df6 a53e 87c3 2d3e c30e ec3d
000003b0: 02e7 2f3e d8ed 543d 6b75 153e 6096 5cbd
000003c0: b0b4 1ebe 3993 c1bd 7de3 633d 9d63 b73e
000003d0: b6ff 273e b00a 383c 65df 8ebe 5bcd 543c
000003e0: d479 5bbd 32db 403e 1f1a 0cbe 2763 4fbe
000003f0: d797 44bd 9ade ae3d be76 10be 31c3 093e

linear1.bias f4 [256]
0.22703835 -0.07265182 0.13908082 0.21091159 -0.18943019 -0.006493845 0.013814788 -0.33859712
0.00016308117 0.27849582 -0.12078059 -0.12391941 0.095547035 -0.025544118 0.10852412 0.064323924
0.13547046 0.17115723 -0.1262145 -0.34557396 -0.30433923 -0.14510988 -0.24931896 -0.2392545
0.25536734 0.33048043 -0.01692065 -0.21603836 -0.07754892 0.15733163 0.025821578 0.21072185
-0.2602588 -0.21240878 -0.15739158 -0.08160801 -0.31334564 0.23110269 -0.233603 -0.27406004
0.30353123 0.32298288 0.3472739 -0.14629635 -0.14439857 0.004483322 0.17137839 0.29652005
-0.1200906 -0.23828873 -0.21719038 -0.16465041 0.1706596 0.19062294 -0.227004 0.17589037
-0.15095232 0.2546151 0.21339889 0.12566394 -0.0059114564 -0.21764885 0.16406503 -0.23833267
0.20734806 0.066128306 0.18688907 -0.16531214 0.24963173 -0.082328856 0.10440747 0.26708332
0.2548531 0.3127254 -0.0065304977 -0.093367785 -0.13163282 -0.20087183 -0.09530748 -0.28777957
0.2907673 0.058677908 -0.27038762 0.10054616 -0.13589445 0.18693027 0.023151707 -0.08516546
-0.14825882 -0.10206492 -0.13916226 -0.07580181 0.2327164 0.026581833 -0.3115335 -0.01910453
0.25600705 0.3150869 0.17408386 0.05752907 0.31942526 0.2722371 -0.1092311 -0.2532446
-0.2008107 -0.100740656 0.2211375 0.32130578 -0.24059261 -0.14974304 0.18555863 -0.288309
-0.25078243 0.20967813 0.22103411 0.008170321 0.1081197 -0.21410207 0.1050526 0.06934073
-0.2952291 0.06107493 0.23181519 -0.0052793687 0.19505152 -0.24409631 -0.24207622 0.08937374
0.07023248 0.2610171 0.1380673 0.040458903 -0.04168356 -0.06302451 0.2852058 -0.21537857
0.08246827 -0.17410715 0.14232874 0.29613838 -0.20016381 0.36294192 0.28161797 0.2443983
0.21754222 0.17849146 0.027875036 -0.06993899 -0.03788592 0.06290026 0.09716995 0.24764515
-0.13046809 0.16909496 -0.21320184 -0.34958348 0.13585688 -0.045366522 -0.1784882 -0.29025057
0.04209297 -0.22834662 -0.30136397 0.07224196 -0.18103652 -0.18754052 0.15592197 0.030341564
0.12524769 -0.13824257 0.23891765 -0.12713787 0.03387606 -0.09208449 0.15143509 -0.004867797
-0.22056408 -0.18112367 -0.17132775 -0.070621446 0.25385377 0.24686714 -0.2896462 0.20590612
0.32881498 -0.1504137 0.26893368 -0.046208516 0.12144279 0.18580893 0.14571212 -0.16211724
0.032270588 0.036603615 0.15594336 -0.26222697 -0.28964093 0.117173634 -0.08400907 -0.06467131
-0.20228633 0.06455077 0.003712009 -0.16647644 0.09430707 -0.048191607 0.08767617 -0.14437087
0.06814214 -0.076812 0.25570545 -0.0054361443 0.10881792 -0.27345765 0.24914314 -0.037863765
-0.34032086 0.22968364 0.29127187 0.24989632 0.27698717 0.014527192 0.005979911 0.08519501
-0.24904318 0.1798765 0.2452651 0.19439946 -0.123338655 -0.07994183 -0.26135126 -0.1041597
-0.007934298 0.025972035 -0.052232955 0.23235983 -0.11150642 0.0863186 -0.04247002 -0.25604248
-0.021632832 -0.19311294 0.30304605 0.061635114 0.102731906 0.008086978 0.015765546 0.005273604
0.1469535 -0.28795853 0.16660854 0.20075452 -0.22875379 -0.0231487 0.22041133 -0.20810707
00000000: be7c 683e 7aca 94bd 346b 0e3e 35f9 573e
00000010: fdf9 41be 52ca d4bb 6c57 623c 9a5c adbe
00000020: c500 2b39 0197 8e3e d05b f7bd 76c9 fdbd
00000030: 2aae c33d e641 d1bc e541 de3d 43bc 833d
00000040: c5b8 0a3e d743 2f3e 603e 01be 12ef b0be
00000050: 5ad2 9bbe af97 14be 784d 7fbe 22ff 74be
00000060: 82bf 823e bb34 a93e 2d9d 8abc 2939 5dbe
00000070: f8d1 9ebd 8b1b 213e c687 d33c 78c7 573e
00000080: a440 85be b081 59be 422b 21be 1a22 a7bd
00000090: d76e a0be 2fa6 6c3e a035 6fbe 9951 8cbe
000000a0: 7268 9b3e 035e a53e e2cd b13e b6ce 15be
000000b0: 38dd 13be d5e8 923b d17d 2f3e 7ad1 973e
000000c0: 0ff2 f5bd f601 74be 2867 5ebe 1e9a 28be
000000d0: 64c1 2e3e a932 433e bd73 68be 9b1c 343e
000000e0: 3f93 1abe e95c 823e 3d85 5a3e 0cae 003e
000000f0: e4b4 c1bb 57df 5ebe aa00 283e 7b0d 74be
00000100: 0d53 543e 476e 873d d95f 3f3e 9647 29be
00000110: 769f 7f3e 089c a8bd 95d3 d53d 25bf 883e
00000120: 1b7c 823e 8b1d a03e c9fd d5bb 9c37 bfbd
00000130: c1ca 06be 58b1 4dbe 9130 c3bd d857 93be
00000140: 74df 943e 3f58 703d 3f70 8abe 25eb cd3d
00000150: ea27 0bbe a66a 3f3e a6a8 bd3c 3b6b aebd
00000160: 29d1 17be 6a07 d1bd 8d80 0ebe fb3d 9bbd
00000170: 354d 6e3e 25c2 d93c 5281 9fbe 1a81 9cbc
00000180: 5b13 833e 1253 a13e 0a43 323e 9aa3 6b3d
00000190: b58b a33e a962 8b3e 8eb4 dfbd 47a9 81be
000001a0: 52a1 4dbe 1e51 cebd de71 623e 3182 a43e
000001b0: e95d 76be 3d56 19be 1503 3e3e 3d9d 93be
000001c0: 8e66 80be ddb5 563e c456 623e cfdc 053c
000001d0: dc6d dd3d 933d 5bbe d125 d73d 8302 8e3d
000001e0: 4528 97be b529 7a3d f660 6d3e 8efe acbb
000001f0: 96bb 473e 62f4 79be d4e2 77be 9409 b73d
00000200: 0cd6 8f3d 09a4 853e 8461 0d3e 3cb8 253d
00000210: 61bc 2abd ff12 81bd 7f06 923e 338c 5cbe
00000220: 20e5 a83d 2549 32be a0be 113e 739f 973e
00000230: bef7 4cbe 86d3 b93e 3b30 903e 8c43 7a3e
00000240: 63c3 5e3e 77c6 363e 305a e43c 2c3c 8fbd
00000250: 442e 1bbd dad1 803d 0a01 c73d b196 7d3e
00000260: 6d99 05be 3b27 2d3e 9551 5abe 9bfc b2be
00000270: 111e 0b3e 3fd2 39bd 9cc5 36be b99b 94be
00000280: ae69 2c3d b2d3 69be 614c 9abe 98f3 933d
00000290: a361 39be 9f0a 40be 02aa 1f3e df8e f83c
000002a0: ee40 003e 768f 0dbe d4a6 743e 6e30 02be
000002b0: a0c1 0a3d cb96 bcbd cd11 1b3e 0a82 9fbb
000002c0: 8ddb 61be 7c78 39be 8b70 2fbe faa1 90bd
000002d0: 1ff9 813e bdca 7c3e 824c 94be 0ed9 523e
000002e0: 705a a83e 0d06 1abe adb1 893e 2445 3dbd
000002f0: ffb6 f83d b244 3e3e 8f35 153e 1002 26be
00000300: 2a2e 043d aced 153d 9eaf 1f3e 9d42 86be
00000310: d14b 94be bbf8 ef3d f30c acbd 6472 84bd
00000320: 2624 4fbe 3233 843d 2d45 733b cd78 2abe
00000330: 1124 c13d 9064 45bd 908f b33d f5d5 13be
00000340: 1b8e 8b3d 9c4f 9dbd d3eb 823e af21 b2bb
00000350: eedb de3d a402 8cbe 611f 7f3e 0917 1bbd
00000360: 893e aebe 3032 6b3e 9621 953e d2e4 7f3e
00000370: 43d1 8d3e 7603 6e3c 21f3 c33b b97a ae3d
00000380: 2d05 7fbe 8c31 383e c626 7b3e a710 473e
00000390: fa98 fcbd 8bb8 a3bd d5cf 85be ae51 d5bd
000003a0: dcfe 01bc 4ec3 d43c 39f2 55bd bcef 6d3e
000003b0: 7a5d e4bd cec7 b03d 0bf5 2dbd 0018 83be
000003c0: 5637 b1bc 66bf 45be da28 9b3e 1a75 7c3d
000003d0: 1b65 d23d 3f7f 043c bf26 813c 32ce ac3b
000003e0: fa7a 163e 4d6f 93be 6e9b 2a3e 9892 4d3e
000003f0: 6f3e 6abe 58a2 bdbc 82b3 613e 051a 55be

linear2.weight f4 [3, 256]
-0.08405125 -0.03270505 -0.07418956 -0.072113596 -0.054644335 0.022806609 -0.012473427 -0.028482547
-0.016394515 0.023773216 -0.015901512 -0.023831323 -0.04919817 -0.017578365 0.10267991 -0.011982792
-0.03912139 -0.067224845 -0.058326013 0.023770217 0.0046621636 0.041345216 0.03755137 -0.11031181
-0.01331912 -0.07503898 -0.06786139 -0.07709596 -0.056911245 0.060504045 0.055126786 0.011593264
-0.0015873285 -0.095298916 0.0608874 -0.050345805 0.05041603 -0.023582883 0.017571378 0.06339567
0.032383766 -0.02035134 0.0040987623 0.016463764 -0.087906346 -0.008324079 -0.0015225228 -0.04808628
-0.038608357 -0.056559324 -0.006515648 -0.061316453 -0.043808546 0.028539594 0.009164529 -0.043875918
0.00044496663 -0.07247267 0.02574378 -0.08185313 -0.080337465 -0.01744367 -0.00198257 0.012277486
-0.028520085 -0.016061991 -0.08061214 -0.040920142 -0.007823619 0.041933924 0.1216164 -0.07868356
-0.068331234 -0.04453761 0.01567246 0.013406524 0.01276757 -0.0032084784 0.063259095 -0.09436359
0.013169003 0.122958094 0.055081435 0.12811425 0.0069972053 -0.08624247 -0.043693222 -0.10609243
0.038498897 0.06359898 -0.09558421 -0.08066024 -0.08634021 -0.018226704 -0.022885667 0.01043146
-0.08246526 -0.04946371 0.0028995718 -0.026895734 -0.038335346 -0.03153504 0.0145215355 -0.058000624
-0.08925483 -0.05817428 -0.03873815 -0.09422621 0.008600607 -0.07417191 -0.060739625 -0.028678589
-0.036076553 -0.05407341 -0.0019455513 0.039762113 -0.06497801 -0.021076314 -0.08128585 0.06148086
0.0035697874 -0.09271082 -0.0025565184 -0.0018181746 0.044229876 0.007868081 0.02653741 -0.041782472
0.02569029 0.009172127 0.0385559 0.04582262 -0.006093296 0.0073691867 -0.058846485 0.008806455
0.004009869 -0.09736477 -0.08429474 -0.004736494 0.0619006 -0.007947577 -0.03392304 -0.07906373
0.045409467 0.02436356 0.041890226 -0.06409857 -0.018536394 -0.08760827 -0.014287492 0.030289479
0.0047294036 0.04445103 0.026083399 -0.0074612615 -0.061636526 -0.07197932 -0.010199861 -0.03573366
-0.036985822 -0.041652247 -0.016451484 0.047220267 0.024623612 0.05777702 0.0065551526 -0.02978762
0.015844602 0.017573994 -0.044123583 -0.030575067 0.019374302 -0.048367906 -0.014313662 0.04839938
0.004404406 -0.010725974 -0.053636674 -0.081581496 -0.030691985 -0.09206735 0.007413123 0.035325084
-0.07675726 0.038156256 -0.09382484 -0.019867353 -0.08511147 0.010809208 -0.050689697 0.0061493306
-0.088340655 0.045667607 0.04974213 0.036738902 -0.0054540094 0.11479691 0.00036411348 -0.047243375
0.10245755 -0.026028467 0.032763436 -0.08003152 0.01938669 -0.057464078 0.036351856 -0.017671155
0.0076872953 0.013124053 -0.040395558 -0.0011444837 -0.06223058 -0.078549154 -0.06334488 0.00040244445
0.029450713 -0.052204926 -0.06307917 -0.048403036 0.04955942 0.03221831 -0.027483666 0.00089927827
-0.07814554 -0.056264874 -0.004256314 -0.0068973606 -0.021008765 0.0644891 0.057137463 -0.09082949
0.0003844842 -0.03485008 0.035313543 -0.07350691 -0.039342478 -0.040895592 -0.019274315 0.04600436
0.002319255 0.013318855 -0.07425434 -0.07999535 0.019887384 -0.013487481 0.059545614 -0.03743914
-0.03780451 -0.1030703 0.0050747627 -0.048758253 0.020083474 -0.031433366 -0.01604079 -0.04773586
00000000: 1023 acbd bbf5 05bd b2f0 97bd 4bb0 93bd
00000010: bdd2 5fbd edd4 ba3c 585d 4cbc 3b54 e9bc
00000020: ca4d 86bc 0cc0 c23c e343 82bc e839 c3bc
00000030: 0584 49bd 8100 90bc d849 d23d 7953 44bc
00000040: c03d 20bd 2ead 89bd 42e7 6ebd c2b9 c23c
00000050: 10c5 983b 9a59 293d 77cf 193d 29eb e1bd
00000060: 7038 5abc 09ae 99bd eafa 8abd 7de4 9dbd
00000070: c41b 69bd 17d3 773d a0cc 613d acf1 3d3c
00000080: e80d d0ba 142c c3bd 1165 793d 6737 4ebd
00000090: 0a81 4e3d e430 c1bc daf1 8f3c 97d5 813d
000000a0: d7a4 043d dab7 a6bc e94e 863b 04df 863c
000000b0: 3e08 b4bd b861 08bc 638f c7ba 1ef6 44bd
000000c0: cc23 1ebd c0aa 67bd 3881 d5bb f626 7bbd
000000d0: 9770 33bd decb e93c d226 163c 3cb7 33bd
000000e0: 694a e939 8d6c 94bd 9fe4 d23c 9da2 a7bd
000000f0: f887 a4bd 07e6 8ebc 01ee 01bb 8227 493c
00000100: f4a2 e9bc 7094 83bc fa17 a5bd e19b 27bd
00000110: a32e 00bc e8c2 2b3d 0512 f93d d924 a1bd
00000120: 3ff1 8bbd 126d 36bd 8863 803c 0aa7 5b3c
00000130: 122f 513c 5645 52bb fc8d 813d b341 c1bd
00000140: cdc2 573c 74d1 fb3d 129d 613d 6230 033e
00000150: d048 e53b e49f b0bd aaf7 32bd fd46 d9bd
00000160: 05b1 1d3d 2f40 823d a7c1 c3bd 3231 a5bd
00000170: 23d3 b0bd 2b50 95bc b97a bbbc b7e8 2a3c
00000180: 8ce3 a8bd 769a 4abd be06 3e3b 7154 dcbc
00000190: 8605 1dbd e32a 01bd bceb 6d3c 1092 6dbd
000001a0: 3ccb b6bd 2748 6ebd e5ab 1ebd acf9 c0bd
000001b0: 8fe9 0c3c 71e7 97bd 1dca 78bd 5cef eabc
000001c0: 02c5 13bd 147c 5dbd de01 ffba 99dd 223d
000001d0: 3113 85bd 3ca8 acbc 3279 a6bd 5bd3 7b3d
000001e0: 18f3 693b 2cdf bdbd 438b 27bb d14f eeba
000001f0: 632a 353d 20e9 003c fc64 d93c 1924 2bbd
00000200: 7174 d23c b046 163c cbec 1d3d 80b0 3b3d
00000210: 46aa c7bb 3879 f13b 0309 71bd f348 103c
00000220: 3865 833b 2e67 c7bd b8a2 acbd 9734 9bbb
00000230: 7c8b 7d3d 8e36 02bc e3f2 0abd 2aec a1bd
00000240: 47ff 393d 1796 c73c 1695 2b3d 1c46 83bd
00000250: a3d9 97bc f76b b3bd 1616 6abc a421 f83c
00000260: 1df9 9a3b 4912 363d daac d53c 997d f4bb
00000270: 9576 7cbd e569 93bd 511d 27bc 755d 12bd
00000280: 727e 17bd 8c9b 2abd 43c5 86bc 0a6a 413d
00000290: 75b7 c93c 99a7 6c3d 9bcc d63b 2b05 f4bc
000002a0: 8acc 813c 56f7 8f3c eeba 34bd 9078 fabc
000002b0: dbb6 9e3c 6d1d 46bd da83 6abc 6e3e 463d
000002c0: d652 903b ffbb 2fbc 21b2 5bbd 3314 a7bd
000002d0: c26d fbbc cf8d bcbd c8e9 f23b 09b1 103d
000002e0: e932 9dbd bc49 1c3d 3d27 c0bd dcc0 a2bc
000002f0: ec4e aebd 1b19 313c 00a0 4fbd 5380 c93b
00000300: f2eb b4bd f50d 3b3d 67be 4b3d 887b 163d
00000310: 8cb7 b2bb a41a eb3d 7ce6 be39 4582 41bd
00000320: 44d5 d13d a739 d5bc f432 063d 91e7 a3bd
00000330: d6d0 9e3c 745f 6bbd afe5 143d 19c3 90bc
00000340: b5e5 fb3b 4506 573c d075 25bd 8002 96ba
00000350: 7ee5 7ebd 61de a0bd f6ba 81bd 2eff d239
00000360: 9f42 f13c d5d4 55bd a72f 81bd 4342 46bd
00000370: d2fe 4a3d 59f7 033d 6d25 e1bc 8bbd 6b3a
00000380: c50a a0bd ff75 66bd 8d78 8bbb 4103 e2bb
00000390: 931a acbc dc12 843d f908 6a3d d004 babd
000003a0: 9994 c939 f5be 0ebd efa4 103d ca8a 96bd
000003b0: 9425 21bd 2382 27bd 2be5 9dbc 116f 3c3d
000003c0: a4fe 173b 5437 5a3c a912 98bd 9ad4 a3bd
000003d0: deea a23c 98fa 5cbc 1ae6 733d c959 19bd
000003e0: e7d8 1abd 8516 d3bd 324a a63b bcb6 47bd
000003f0: 1986 a43c 46c0 00bd fa67 83bc ad86 43bd

linear2.bias f4 [3]
-0.08928999 -0.07642926 -0.114871025
00000000: acdd b6bd f286 9cbd 8041 ebbd
